pth/model.pth (torch, 815633 bytes, 77 tensors)

conv.weight f4 [16, 3, 3, 3]
0.1468929 1.8761419 1.5827544 0.4282801 -3.2149591 -0.8938534 -0.36526597 -0.07410202
0.84924835 0.7329508 1.3934625 0.7857568 0.53345245 -3.6840386 -1.5611423 0.5712154
0.623448 1.1930319 0.41198355 1.5386468 0.46901435 0.5486859 -2.3492 -1.6114329
0.27711824 0.13660043 0.42124113 1.3522878 0.5757563 0.73629284 2.0013711 -0.1182941
-1.0490222 0.79495937 -0.7538023 -1.7145182 0.25092328 -1.0828342 -1.121357 1.853109
-1.2684437 -2.4875627 1.4716953 -0.47048417 -1.6890702 0.22529662 -0.36941814 -0.5840704
2.0023055 -0.07012979 -1.4442859 1.9524049 0.60701656 -0.68165386 0.36758485 0.6277006
0.53474295 0.38436255 1.4516966 0.68696034 0.33122617 -0.7133439 -0.5929528 -1.60698
-0.97098666 -1.3114185 -0.97307897 0.39762205 0.061376352 -1.4534751 -1.4186082 -1.2844828
-1.045781 0.109092854 -0.43208286 1.018224 4.5119066 3.3367987 0.14629373 1.7980022
0.957791 1.4071324 1.4574037 1.5536608 1.5200474 -1.2034893 -0.9307507 0.25950515
-1.3807672 -0.9511174 -0.18505967 -1.5531135 -0.80683255 -0.4133785 -5.2573347 -4.0008736
0.49940112 -1.1612438 0.0575908 -0.25919265 0.405302 0.99572414 0.11333473 -0.60945296
0.14713484 0.51479554 0.562262 1.557904 -0.51461893 -0.6394337 -0.7656705 -0.8553539
-0.6680281 -0.7756804 -0.48226413 -0.6317932 -0.4064031 -0.28463912 -0.16195719 -0.5058957
-0.464366 -0.571102 -0.5637005 -0.5265499 -0.33052945 -0.42366347 0.50341356 0.5432705
-0.2360195 0.19667701 0.17045651 -0.18346247 0.16397794 0.06747115 -0.029447155 -0.5499157
-0.96750516 -1.1466212 -1.567003 -1.8283557 -2.3912969 -1.0328125 -1.592394 -1.5747734
0.038393963 0.60352904 -0.33348596 0.17412297 1.0704569 -0.24728689 0.7090683 0.8969599
0.097569294 -0.74378246 0.9773415 -0.32074237 0.6039674 2.661554 1.0656244 1.1770151
2.6398697 1.6224808 -0.57547677 -0.68298435 -1.1716193 -1.3597866 -1.758935 -2.1575825
-0.8201299 -1.3462821 -1.6983817 0.5016234 1.47509 0.21325514 -0.089707226 0.46519578
-0.019030996 -0.8789499 -0.5691784 -0.84763277 0.7500391 2.6242676 1.335183 0.5718358
2.7382648 1.6278086 -0.29434574 0.769736 0.07944867 -0.5029692 -0.18036357 -0.05659889
-0.3578365 -1.2704235 -0.83217096 -0.6126598 -1.8818883 -1.540453 1.983699 3.3802829
3.0421429 1.2345474 1.6256387 1.7638298 0.26646098 0.06294726 0.26303723 -0.41026008
-0.25016662 -0.12102758 -0.78266084 -1.3796773 -0.9270354 -0.3941731 -1.6472778 -1.5811853
0.69681287 0.5036739 0.7322481 0.46538603 1.4513857 1.8399658 0.18731757 0.89387196
1.4745265 0.5087008 -0.84029454 -0.9688298 -1.5080174 -2.0632226 -1.5767692 -1.7245692
-1.8543739 -0.7669285 2.3479908 1.3625385 0.71991175 -0.084177054 -0.5008339 -0.46595532
-1.1887293 -0.75440687 0.3141436 -1.2209918 0.25375584 -1.1319194 0.10184278 1.9640123
0.025656546 -0.37744358 0.14239407 -1.4947526 -0.51127124 1.5789181 -0.6993931 1.0412296
00000000: 186b 163e 6b25 f03f b297 ca3f 8747 db3e
00000010: e4c1 4dc0 94d3 64bf 2404 bbbe cdc2 97bd
00000020: 5768 593f aaa2 3b3f fb5c b23f 5c27 493f
00000030: 5790 083f 4ac7 6bc0 83d3 c7bf 2c3b 123f
00000040: 4a9a 1f3f 45b5 983f 82ef d23e 61f2 c43f
00000050: a622 f03e ae76 0c3f 4b59 16c0 6f43 cebf
00000060: 71e2 8d3e fce0 0b3e ebac d73e c417 ad3f
00000070: c464 133f b07d 3c3f 7716 0040 2d44 f2bd
00000080: 5c46 86bf 7582 4b3f 30f9 40bf 5575 dbbf
00000090: 0479 803e 509a 8abf a088 8fbf ad32 ed3f
000000a0: 5d5c a2bf 3a34 1fc0 8360 bc3f 4de3 f0be
000000b0: 7433 d8bf 28b4 663e 6024 bdbe a385 15bf
000000c0: c625 0040 35a0 8fbd 5cde b8bf 67e8 f93f
000000d0: 7065 1b3f de80 2ebf 1534 bc3e fdb0 203f
000000e0: eae4 083f 2bcb c43e 32d1 b93f a2dc 2f3f
000000f0: 7a96 a93e b59d 36bf c1cb 17bf 85b1 cdbf
00000100: 9592 78bf 90dc a7bf b41b 79bf 1e95 cb3e
00000110: c565 7b3d 790b babf f494 b5bf ef69 a4bf
00000120: 27dc 85bf 136c df3d f739 ddbe 2a55 823f
00000130: 8a61 9040 1c8e 5540 06ce 153e f024 e63f
00000140: ca31 753f ea1c b43f 348c ba3f 5bde c63f
00000150: ea90 c23f f00b 9abf ae45 6ebf dcdd 843e
00000160: fbbc b0bf 6e7c 73bf 4880 3dbe 6ccc c6bf
00000170: 948c 4ebf 59a6 d3be 163c a8c0 2807 80c0
00000180: 81b1 ff3e a3a3 94bf 55e4 6b3d e6b4 84be
00000190: be83 cf3e c7e7 7e3f 0a1c e83d 1c05 1cbf
000001a0: 84aa 163e a4c9 033f 67f0 0f3f 6669 c73f
000001b0: 11be 03bf edb1 23bf fb02 44bf 79f8 5abf
000001c0: e403 2bbf fe92 46bf 53eb f6be 33bd 21bf
000001d0: 1114 d0be 38bc 91be 1bd8 25be 6182 01bf
000001e0: 61c1 edbe be33 12bf ad4e 10bf f9cb 06bf
000001f0: 283b a9be 6bea d8be b6df 003f c713 0b3f
00000200: 19af 71be b365 493e 278c 2e3e 96dd 3bbe
00000210: d5e9 273e 502e 8a3d 293b f1bc 46c7 0cbf
00000220: 6bae 77bf 7cc4 92bf 8e93 c8bf 8f07 eabf
00000230: 020b 19c0 3333 84bf 91d3 cbbf 2d92 c9bf
00000240: fd42 1d3d e180 1a3f acbe aabe 4b4d 323e
00000250: bb04 893f c638 7dbe 8085 353f 2a9f 653f
00000260: 69d2 c73d 8768 3ebf 0d33 7a3f 5838 a4be
00000270: 9c9d 1a3f e756 2a40 6166 883f 6ea8 963f
00000280: a0f3 2840 73ad cf3f 7252 13bf 10d8 2ebf
00000290: 9ff7 95bf 7d0d aebf c824 e1bf d515 0ac0
000002a0: 08f4 51bf f952 acbf 9264 d9bf 646a 003f
000002b0: c0cf bc3f 8e5f 5a3e 6cb8 b7bd 242e ee3e
000002c0: e4e6 9bbc dc02 61bf adb5 11bf 76fe 58bf
000002d0: 9002 403f 00f4 2740 47e7 aa3f d563 123f
000002e0: bb3f 2f40 085c d03f 7cb4 96be 6b0d 453f
000002f0: fcb5 a23d 97c2 00bf 3ab1 38be 3dd4 67bd
00000300: 5936 b7be 3d9d a2bf 2809 55bf 46d7 1cbf
00000310: b7e1 f0bf 902d c5bf d9e9 fd3f 8e56 5840
00000320: 78b2 4240 a605 9e3f ee14 d03f 2dc5 e13f
00000330: 936d 883e 7eea 803d d1ac 863e 9c0d d2be
00000340: d715 80be 4fdd f7bd 765c 48bf 4499 b0bf
00000350: 3152 6dbf 0ed1 c9be 00da d2bf 4864 cabf
00000360: 5462 323f c6f0 003f 9d74 3b3f 1447 ee3e
00000370: 02c7 b93f 0084 eb3f 2dd0 3f3e cbd4 643f
00000380: 49bd bc3f 373a 023f 8b1d 57bf 3b05 78bf
00000390: b706 c1bf d70b 04c0 93d3 c9bf afbe dcbf
000003a0: 205c edbf 6d55 44bf 7b45 1640 a967 ae3f
000003b0: 234c 383f 0565 acbd a736 00bf b291 eebe
000003c0: 4828 98bf cf20 41bf 6ed7 a03e 7649 9cbf
000003d0: 49ec 813e bce2 90bf f392 d03d c164 fb3f
000003e0: ad2d d23c 4940 c1be c0cf 113e 0e54 bfbf
000003f0: ace2 02bf fd19 ca3f 6d0b 33bf 0347 853f

bn.weight f4 [16]
2.7949317 3.456465 1.4986624 2.2104633 0.078841 1.1118771 1.0971206 1.828313
1.034341 1.3437191 3.6780024 1.8661126 0.4874141 2.6133473 2.0960505 0.7752114
00000000: 29e0 3240 b936 5d40 2bd4 bf3f 3b78 0d40
00000010: 6477 a13d fd51 8e3f 736e 8c3f 2906 ea3f
00000020: 4965 843f fdfe ab3f 6464 6b40 c7dc ee3f
00000030: 578e f93e 1541 2740 b125 0640 4174 463f

bn.bias f4 [16]
1.892873 0.5144336 0.8332509 -0.29248935 -0.23417646 0.88078684 0.30920005 1.3827463
-1.3539053 -0.8322276 3.891835 -0.7187119 -1.5286145 1.6059675 1.0420481 -1.181604
00000000: aa49 f23f ecb1 033f ee4f 553f 2ac1 95be
00000010: f4cb 6fbe 3f7b 613f 784f 9e3e d5fd b03f
00000020: c54c adbf de0c 55bf d313 7940 81fd 37bf
00000030: a4a9 c3bf 5890 cd3f d561 853f cd3e 97bf

bn.running_mean f4 [16]
0.14066344 -0.5121331 2.2853863 -3.8896837 -3.981011 -0.20176089 -0.63897634 -0.30852908
-0.4399064 5.9526024 -0.12231427 -0.10844305 -5.110209 -0.117285624 -0.72854674 3.5403218
00000000: 140a 103e 281b 03bf c543 1240 94f0 78c0
00000010: e2c8 7ec0 689a 4ebe f493 23bf 86f7 9dbe
00000020: 693b e1be b87b be40 e77f fabd 6417 debd
00000030: d586 a3c0 7233 f0bd 0a82 3abf a294 6240

bn.running_var f4 [16]
1.6936506 4.1340666 3.2847128 4.6620483 3.565908 3.6640089 4.0287123 2.573474
1.5308173 11.299609 0.7494761 1.1975807 8.909912 5.051494 2.401869 4.3363853
00000000: 8bc9 d83f 464a 8440 bc38 5240 802f 9540
00000010: d637 6440 1f7f 6a40 36eb 8040 ccb3 2440
00000020: d2f1 c33f 33cb 3441 aadd 3f3f 534a 993f
00000030: 008f 0e41 d7a5 a140 39b8 1940 abc3 8a40

layer1.0.conv1.weight f4 [16, 16, 3, 3]
-0.16779771 0.45881343 0.050204072 -1.9138135 -0.37351283 0.66577387 -1.6465834 -0.7822462
-0.73520505 0.19931921 0.9151515 0.12838234 0.28803408 2.2246861 1.5396421 0.3069115
1.9804397 2.0197625 -0.109501645 0.39223683 1.2064365 0.8868802 1.2088441 1.5714816
1.3012991 1.289625 1.5295159 0.9870986 0.7648819 -0.049971372 1.5297776 1.8242631
1.8346179 1.5533903 1.8509552 1.8939384 -0.14024311 -0.19407201 0.11981872 -0.29181182
-0.13028827 0.26320314 -0.30405542 -0.10934007 0.12373831 0.24015173 0.14365597 0.024188329
-0.011233276 -0.32096267 -0.29927015 -1.2176335 -1.3081332 -0.8805688 -0.5245445 -0.32196936
0.69067675 -1.3909736 -1.2956274 -0.56528085 -1.3518926 -1.1954728 -0.6117989 -0.122081175
1.212748 2.9354644 -2.2799432 -1.7316302 -0.111640155 -2.8978128 -2.5839655 -0.8785412
-0.43150878 -0.30956367 -0.86536676 1.0877376 1.3444778 0.4705153 1.9749852 2.2493525
1.2434081 0.69563407 0.7082183 0.7103527 1.0875914 1.1860865 1.3211516 1.5923302
1.8042258 1.8043526 -0.39056274 1.183892 -0.71997845 1.3171792 -0.30977497 -1.4441692
1.741308 0.87753713 -0.6546036 -0.82949704 -0.4708871 -0.17123014 0.73166347 1.5279799
1.3542014 1.3314211 2.231545 2.2568521 0.3733579 0.47535506 1.637916 1.0588627
1.0630611 2.0085876 1.3694656 1.1277868 1.9427958 0.10409394 2.0568855 2.5021403
1.1527034 1.5789667 0.9244617 0.42387277 0.84060603 1.7986062 0.90317506 0.6067669
-1.0920643 0.4088428 0.6218398 -0.54778546 -1.9432045 -1.7336825 -0.44740883 0.2928798
-0.15689467 -0.47621188 0.46006113 -0.20574668 4.797439e-05 0.6069536 0.058980327 0.2426967
0.847124 -0.6357456 -1.154211 -0.48361856 0.7288113 0.22640282 -1.3834704 2.0341434
0.9099371 -2.216179 1.8931208 1.6575007 -1.4828334 1.8715072 0.7718731 -0.20971687
1.7548039 -0.8861315 1.4409817 1.8091619 1.6495068 1.7923974 1.799913 1.1157825
-0.89790267 -1.4545734 -1.020353 0.30694887 0.31128716 0.39597324 -0.6669584 -0.5183074
-0.92451197 -0.80524224 0.34373 -0.33981633 -0.20871279 -0.226906 -0.27642626 0.10151476
-0.042910118 -0.101427615 0.08721335 -0.029411294 0.036760617 1.5811683 2.1444125 1.5969536
1.8970567 2.351309 1.8689334 0.9315005 1.1288221 1.08349 0.038286988 -0.025862476
-0.6545981 1.3903213 1.9770571 1.4151472 1.6253635 1.9150045 1.3985348 0.4292529
0.1026954 0.21704447 0.3875219 0.98475116 1.3730792 0.65997475 1.3719118 0.7067748
1.7666334 1.926585 1.3936889 -1.1278933 -0.5435147 1.1128553 -2.5870254 -2.342121
-0.37035137 0.06372108 -0.3357965 0.06788366 0.6069465 0.549249 0.85156214 0.9023754
-0.044452164 0.535401 2.1737874 1.7192098 0.81054246 0.053067192 1.1188865 1.2647319
-2.5175927 0.8996252 1.1382191 1.3155565 1.6731858 0.20068619 1.1197637 1.4044203
1.0640122 -0.4265197 -1.3974209 -0.26558125 0.5905134 0.63545567 2.044846 0.46011657
00000000: 2ad3 2bbe 98e9 ea3e c9a2 4d3d d7f7 f4bf
00000010: 133d bfbe 2870 2a3f 3fc3 d2bf 4941 48bf
00000020: 6636 3cbf 561a 4c3e 5e47 6a3f a976 033e
00000030: 3479 933e 4261 0e40 fe12 c53f 8123 9d3e
00000040: 0c7f fd3f ca43 0140 6642 e0bd 44d3 c83e
00000050: 836c 9a3f 950a 633f 67bb 9a3f 4f26 c93f
00000060: f890 a63f 6f12 a53f 2dc7 c33f 7eb2 7c3f
00000070: 4dcf 433f c8ae 4cbd c1cf c33f 7481 e93f
00000080: c2d4 ea3f 7ed5 c63f 1aec ec3f 936c f23f
00000090: e49b 0fbe d0ba 46be 8463 f53d 5c68 95be
000000a0: 4a6a 05be 90c2 863e 27ad 9bbe b0ed dfbd
000000b0: 836a fd3d 56ea 753e 8d1a 133e 9a26 c63c
000000c0: c60b 38bc 3855 a4be f039 99be 6adb 9bbf
000000d0: e970 a7bf f56c 61bf 8c48 06bf 2bd9 a4be
000000e0: 31d0 303f 6c0b b2bf 1ed7 a5bf 3fb6 10bf
000000f0: d10a adbf 4105 99bf da9e 1cbf b205 fabd
00000100: 543b 9b3f a6de 3b40 97ea 11c0 0fa6 ddbf
00000110: 98a3 e4bd c475 39c0 b15f 25c0 13e8 60bf
00000120: b8ee dcbe 217f 9ebe ad88 5dbf fc3a 8b3f
00000130: d917 ac3f 62e7 f03e 51cc fc3f 64f5 0f40
00000140: ff27 9f3f 1315 323f cb4d 353f add9 353f
00000150: 3236 8b3f afd1 973f 7f1b a93f 7ad1 cb3f
00000160: dff0 e63f 07f5 e63f d7f7 c7be c689 973f
00000170: 8250 38bf 5499 a83f d39a 9ebe 89da b8bf
00000180: 2ee3 de3f 46a6 603f 1a94 27bf eb59 54bf
00000190: 1d18 f1be f456 2fbe 4c4e 3b3f d894 c33f
000001a0: 7956 ad3f 026c aa3f a2d1 0e40 4470 1040
000001b0: c428 bf3e bd61 f33e 3ba7 d13f d088 873f
000001c0: 6312 883f b38c 0040 a64a af3f 515b 903f
000001d0: 88ad f83f 342f d53d 03a4 0340 1123 2040
000001e0: c98b 933f 951b ca3f 86a9 6c3f da05 d93e
000001f0: f531 573f ba38 e63f 7b36 673f 1355 1b3f
00000200: c3c8 8bbf d853 d13e e530 1f3f ab3b 0cbf
00000210: edba f8bf 4fe9 ddbf c512 e5be 57f4 953e
00000220: ffa8 20be 0bd2 f3be 228d eb3e 42af 52be
00000230: 1c38 4938 5061 1b3f 5b95 713d 7c85 783e
00000240: 1edd 583f 39c0 22bf 30bd 93bf da9c f7be
00000250: 6193 3a3f 24d6 673e 8f15 b1bf 682f 0240
00000260: a3f1 683f e0d5 0dc0 c851 f23f fc28 d43f
00000270: 7ccd bdbf 8c8d ef3f 7a99 453f 05c0 56be
00000280: 6a9d e03f 84d9 62bf 1772 b83f 9e92 e73f
00000290: 0a23 d33f 476d e53f 8d63 e63f f6d1 8e3f
000002a0: f3dc 65bf 762f babf ed9a 82bf 6728 9d3e
000002b0: 0861 9f3e 01bd ca3e c9bd 2abf cbaf 04bf
000002c0: d1ac 6cbf 5b24 4ebf 61fd af3e 68fc adbe
000002d0: ceb8 55be 0c5a 68be be87 8dbe f8e6 cf3d
000002e0: 85c2 2fbd 48b9 cfbd ea9c b23d f4ef f0bc
000002f0: 4d92 163d b963 ca3f 0e3e 0940 fa68 cc3f
00000300: c1d2 f23f d97b 1640 3639 ef3f d176 6e3f
00000310: 3e7d 903f cdaf 8a3f d1d2 1c3d 8bdd d3bc
00000320: be93 27bf 0cf6 b13f 3510 fd3f 8b23 b53f
00000330: e90b d03f de1e f53f 3003 b33f 09c7 db3e
00000340: f751 d23d e840 5e3e 4569 c63e a718 7c3f
00000350: 0fc1 af3f 1bf4 283f ce9a af3f 31ef 343f
00000360: 0b21 e23f 569a f63f 6664 b23f cf5e 90bf
00000370: c823 0bbf 0b72 8e3f d391 25c0 4fe5 15c0
00000380: b29e bdbe 3380 823d 85ed abbe 9706 8b3d
00000390: d960 1b3f 959b 0c3f faff 593f 1302 673f
000003a0: 7913 36bd 0a10 093f 551f 0b40 110f dc3f
000003b0: b67f 4f3f fc5c 593d ac37 8f3f bce2 a13f
000003c0: 3d20 21c0 d64d 663f 2ab1 913f 2864 a83f
000003d0: f42a d63f ae80 4d3e 6b54 8f3f 0bc4 b33f
000003e0: 8d31 883f ca60 dabe b0de b2bf 44fa 87be
000003f0: e32b 173f 39ad 223f c2de 0240 6694 eb3e

layer1.0.bn1.weight f4 [16]
1.2831764 1.5487205 1.577917 1.33882 1.582223 0.9093588 1.1013736 3.5035996
1.919183 3.11442 1.0468547 1.4260312 2.402781 2.8325758 0.2430968 2.0122008
00000000: 203f a43f 793c c63f 2ff9 c93f 745e ab3f
00000010: 4986 ca3f bdcb 683f cff9 8c3f fa3a 6040
00000020: caa7 f53f a852 4740 56ff 853f 3188 b63f
00000030: 2ac7 1940 ec48 3540 5eee 783e e6c7 0040

layer1.0.bn1.bias f4 [16]
-1.0559603 -1.5338016 0.6359506 -0.67663074 -0.31798124 -0.4771355 0.34332755 3.0160313
1.4338354 1.6624397 -0.47525308 -1.0884193 0.03759562 0.31409046 -1.3299944 0.83751166
00000000: b529 87bf 9c53 c4bf a9cd 223f ac37 2dbf
00000010: 70ce a2be 1b4b f4be a1c8 af3e a806 4140
00000020: eb87 b73f d3ca d43f 5f54 f3be 5351 8bbf
00000030: ddfd 193d 77d0 a03e 423d aabf 2a67 563f

layer1.0.bn1.running_mean f4 [16]
31.801588 99.2647 -60.264664 -37.709267 -64.5835 40.11783 -50.382637 -0.9272837
-72.72127 -28.428913 -78.70507 16.605673 -50.92929 -27.2056 -42.478092 -44.812164
00000000: a769 fe41 8787 c642 040f 71c2 4ad6 16c2
00000010: c12a 81c2 a878 2042 d287 49c2 7762 6dbf
00000020: 4a71 91c2 6a6e e3c1 ff68 9dc2 6bd8 8441
00000030: 98b7 4bc2 12a5 d9c1 91e9 29c2 a83f 33c2

layer1.0.bn1.running_var f4 [16]
906.01733 856.44147 1050.2185 1521.714 1685.5503 1410.746 849.6093 721.7938
1092.1709 1259.0698 1683.0541 1252.5934 1038.6077 1327.0164 481.24283 1133.2719
00000000: 1c81 6244 411c 5644 fe46 8344 d936 be44
00000010: 9cb1 d244 df57 b044 ff66 5444 ce72 3444
00000020: 7885 8844 3c62 9d44 bb61 d244 fd92 9c44
00000030: 72d3 8144 86e0 a544 159f f043 b3a8 8d44

layer1.0.conv2.weight f4 [16, 16, 3, 3]
-0.6629035 0.24782431 0.3348514 2.1228216 1.9398332 1.7015285 0.19040118 1.4072324
1.2757137 -1.3992676 0.48963237 0.29970938 0.93752915 1.8057078 -1.4798719 0.78595567
0.28321627 -0.4124235 1.5491694 0.32245156 1.6067787 -0.9385607 0.50365096 1.56799
-1.1516564 2.2188413 -0.11322923 -0.10114233 0.71509814 0.14107296 -1.472501 -1.7621236
-1.9830223 0.7969147 1.9431491 0.5106296 -0.60247207 -0.0892019 -0.7955338 -0.013588287
0.2855415 0.83841306 -0.39456004 0.67093647 0.619842 -2.0645537 -2.2956862 -0.6538155
-2.3687468 -1.1797001 -1.6551336 0.33579192 -1.0367595 -0.23045462 1.1134338 2.2486367
0.8106322 0.6808862 1.4295045 0.8759406 1.3957562 -0.44420183 -0.9109576 1.3022127
-4.165205 -1.0532622 -0.11327968 2.8681219 -0.13819592 -0.8607679 -0.25395653 -0.94421226
2.5719264 1.1457858 0.30107272 -0.6190803 -1.5378805 1.1353022 -0.6930413 0.68829775
-1.9823011 0.17921057 1.1599106 1.3261913 1.91376 -3.2812667 -1.5458187 -0.47149557
1.228368 0.4307327 -0.06507808 0.061682202 -0.93179137 -0.78591245 -1.5031296 -0.6946034
-0.3153485 0.2902837 0.60984266 -0.700448 1.3474182 0.5364438 -1.2529554 -0.9393138
-1.5169402 1.3604687 2.433983 1.3019927 -1.0695373 -1.587843 -0.3809783 -0.06326068
2.1892364 -0.6791501 1.739771 -1.3195431 -0.11738458 1.1487366 -0.3644605 -0.45975432
-0.24602234 0.6286822 -0.65753347 0.37807417 -0.7769871 0.29770392 -0.96409035 0.3719281
-0.079835705 -0.63539577 0.34359908 0.020597048 -0.122458234 0.2776497 -0.07069037 0.00059242954
-2.684759 -2.2750423 0.59102696 2.1250043 0.19921204 1.0091529 -0.24354476 -0.9497917
-0.50888526 -1.3206646 -0.25027126 -1.7397411 -1.1064891 -0.104194075 -2.5739617 -0.8224449
0.877048 -0.15007454 -0.39843175 0.024939517 0.3714055 -0.0120085515 -0.67700225 0.49804428
-1.0134057 -1.0161732 -0.30382434 -0.29670575 0.3115444 -1.1846801 -1.2505298 -0.47338355
-1.693944 -1.597889 -0.13952336 -1.9359975 -1.6117349 -0.7023424 -1.2967722 -1.4237183
-0.84404045 -1.0928379 -0.73588604 0.08499699 -0.4949073 -0.7418764 -0.15179546 -0.10968629
-1.2868388 -1.7981168 -0.9995103 -1.2171214 -1.0313749 1.184699 0.7802399 0.37598327
0.6758672 0.7451605 0.40203893 1.0441828 -0.024337027 -0.47845253 -0.32468012 -1.0809879
-0.8342603 0.88664424 0.5160768 1.4332533 2.470702 0.82067424 0.68901575 2.1900778
-1.7739874 -1.0360872 -2.0271118 0.21098574 -0.2181012 -1.0750324 1.2108433 0.9738228
1.6806185 -0.05489507 -0.9952839 2.5057344 0.33082125 -2.1144454 0.795126 1.4560373
0.5194963 -0.08407751 0.12801875 0.73950714 4.286812 1.170983 -2.3121467 0.91819924
1.6540648 -0.18825838 -0.081614845 -0.32586637 -0.36529917 0.63486475 -1.2261033 -0.50789183
1.2798144 -0.27677372 -0.2543532 -0.7446287 -0.85939586 -0.82460326 -0.43870258 -0.89073175
-0.901456 -2.3282254 -0.9067391 -0.4950676 0.5651406 -0.22106072 0.31346697 -1.933188
00000000: 0bb4 29bf a8c5 7d3e a571 ab3e 4fdc 0740
00000010: 744c f83f b0cb d93f 87f8 423e 3120 b43f
00000020: 964a a33f 331b b3bf 18b1 fa3e 8273 993e
00000030: e901 703f 6f21 e73f 716c bdbf 6434 493f
00000040: b901 913e 2c29 d3be 2f4b c63f 5f18 a53e
00000050: edaa cd3f 8445 70bf 45ef 003f e5b3 c83f
00000060: 7a69 93bf 7f01 0e40 bae4 e7bd b623 cfbd
00000070: ac10 373f 6e75 103e ea7a bcbf 448d e1bf
00000080: add3 fdbf 9a02 4c3f 1cb9 f83f 9fb8 023f
00000090: 9c3b 1abf 7caf b6bd 1aa8 4bbf 68a1 5ebc
000000a0: 7f32 923e 3da2 563f c603 cabe 7ec2 2b3f
000000b0: f7ad 1e3f a621 04c0 86ec 12c0 7460 27bf
000000c0: 8c99 17c0 6a00 97bf 6bdb d3bf ebec ab3e
000000d0: 89b4 84bf 4cfc 6bbe 0085 8e3f aae9 0f40
000000e0: 9885 4f3f 8f4e 2e3f 01fa b63f a53d 603f
000000f0: 24a8 b23f 6c6e e3be 8434 69bf e8ae a63f
00000100: 5c49 85c0 4cd1 86bf 2dff e7bd 4f8f 3740
00000110: 3b83 0dbe 495b 5cbf 9706 82be e5b7 71bf
00000120: 719a 2440 1ca9 923f 3426 9a3e 0c7c 1ebf
00000130: 45d9 c4bf 9551 913f 286b 31bf 4834 303f
00000140: 0bbc fdbf fa82 373e f377 943f a3c0 a93f
00000150: 16f6 f43f 4600 52c0 63dd c5bf de67 f1be
00000160: 2a3b 9d3f ff88 dc3e a847 85bd 7aa6 7c3d
00000170: e189 6ebf 8f31 49bf 8d66 c0bf 87d1 31bf
00000180: 5c75 a1be 11a0 943e a61e 1c3f 8f50 33bf
00000190: 3378 ac3f 6254 093f d860 a0bf df76 70bf
000001a0: 192b c2bf d723 ae3f 61c6 1b40 b2a7 a63f
000001b0: 99e6 88bf 703e cbbf 960f c3be d18e 81bd
000001c0: 731c 0c40 c8dc 2dbf d1b0 de3f cae6 a8bf
000001d0: 5467 f0bd cd09 933f 919a babe eb64 ebbe
000001e0: 48ed 7bbe 51f1 203f 1d54 28bf f092 c13e
000001f0: a0e8 46bf a66c 983e a0ce 76bf 5c6d be3e
00000200: e780 a3bd 4ca9 22bf 38ec af3e 24bb a83c
00000210: 62cb fabd 1a28 8e3e 1dc6 90bd 464d 1b3a
00000220: 17d3 2bc0 4b9a 11c0 8b4d 173f 1200 0840
00000230: 3efe 4b3e ec2b 813f cc63 79be 8d25 73bf
00000240: 4e46 02bf 8a0b a9bf 8e23 80be d6af debf
00000250: 6fa1 8dbf b463 d5bd cabb 24c0 c08b 52bf
00000260: 3886 603f 24ad 19be 3fff cbbe f54d cc3c
00000270: dd28 be3e 84bf 44bc 0550 2dbf a9ff fe3e
00000280: 47b7 81bf f711 82bf dd8e 9bbe d1e9 97be
00000290: bf82 9f3e 99a3 97bf 5c11 a0bf 545f f2be
000002a0: 28d3 d8bf a087 ccbf 36df 0ebe c4ce f7bf
000002b0: 544d cebf b6cc 33bf a2fc a5bf 673c b6bf
000002c0: 0913 58bf 1de2 8bbf 0763 3cbf e712 ae3d
000002d0: 7d64 fdbe 9deb 3dbf 4570 1bbe 35a3 e0bd
000002e0: 22b7 a4bf b128 e6bf e8df 7fbf a2ca 9bbf
000002f0: 1804 84bf 38a4 973f cdbd 473f e180 c03e
00000300: a205 2d3f d7c2 3e3f 0cd8 cd3e c8a7 853f
00000310: 725e c7bc bbf7 f4be 793c a6be d05d 8abf
00000320: 1592 55bf 1efb 623f 9c1d 043f d874 b73f
00000330: fb1f 1e40 b517 523f 5663 303f 3c2a 0c40
00000340: 0512 e3bf 819e 84bf 33bc 01c0 a50c 583e
00000350: ec55 5fbe a99a 89bf eafc 9a3f 734c 793f
00000360: 821e d73f a7d9 60bd edca 7ebf f45d 2040
00000370: 6761 a93e 1353 07c0 618d 4b3f 6e5f ba3f
00000380: b6fd 043f d430 acbd 5917 033e 5750 3d3f
00000390: 902d 8940 c5e2 953f 36fa 13c0 1b0f 6b3f
000003a0: 65b8 d33f cec6 40be af25 a7bd f5d7 a6be
000003b0: 7e08 bbbe 7f86 223f f4f0 9cbf 3305 02bf
000003c0: f5d0 a33f 49b5 8dbe 953a 82be fd9f 3ebf
000003d0: 5e01 5cbf 3319 53bf a09d e0be ff06 64bf
000003e0: d2c5 66bf a501 15c0 0e20 68bf 8079 fdbe
000003f0: 0ead 103f be5d 62be be7e a03e b472 f7bf

layer1.0.bn2.weight f4 [16]
2.0417578 1.846327 1.0191911 1.0876468 1.0616132 1.0042475 0.473118 0.5646862
0.81014067 1.2869236 2.9784663 1.6175371 2.117367 1.3199238 1.4547622 1.3876255
00000000: 29ac 0240 7154 ec3f db74 823f 0338 8b3f
00000010: f1e2 873f 2f8b 803f 863c f23e 468f 103f
00000020: 6165 4f3f eab9 a43f 319f 3e40 750b cf3f
00000030: f182 0740 43f3 a83f a635 ba3f b69d b13f

layer1.0.bn2.bias f4 [16]
0.7956396 -0.7002879 0.43523613 -0.5788796 -0.43866712 -0.3080967 0.36482954 -1.408639
-0.96358037 0.0023951584 -0.41277346 0.58157694 0.72534716 -1.0199175 0.2991812 -0.4767356
00000000: 09af 4b3f 1146 33bf 45d7 de3e 7431 14bf
00000010: fa98 e0be dabe 9dbe f0ca ba3e 484e b4bf
00000020: 34ad 76bf 17f8 1c3b 0b57 d3be 3ae2 143f
00000030: 5ab0 393f a88c 82bf 472e 993e b016 f4be

layer1.0.bn2.running_mean f4 [16]
-2.4124534 28.232288 -30.933311 -27.05208 -35.215816 7.2981334 -2.477866 47.79868
-14.338785 20.098068 6.133784 22.179613 8.678987 -21.040417 -12.562055 -42.976444
00000000: a365 1ac0 badb e141 6c77 f7c1 a96a d8c1
00000010: ffdc 0cc2 4f8a e940 5b95 1ec0 d931 3f42
00000020: aa6b 65c1 d8c8 a041 f547 c440 d96f b141
00000030: 21dd 0a41 c652 a8c1 2dfe 48c1 e1e7 2bc2

layer1.0.bn2.running_var f4 [16]
758.16406 1747.4545 1298.5032 1315.8757 1350.685 750.9827 1032.5426 863.18994
933.76624 927.9041 1333.4397 1058.2314 1001.7784 1590.2389 1342.5586 977.14813
00000000: 808a 3d44 8b6e da44 1a50 a244 067c a444
00000010: ecd5 a844 e5be 3b44 5d11 8144 28cc 5744
00000020: 0a71 6944 ddf9 6744 12ae a644 6847 8444
00000030: d171 7a44 a5c7 c644 e0d1 a744 7b49 7444

layer1.1.conv1.weight f4 [16, 16, 3, 3]
-0.47970358 0.7302959 0.112389475 0.08256298 -1.4906471 2.6163478 1.9799489 -0.46818826
0.30755025 -2.994443 0.5315578 -0.016931385 -6.037111 -2.3942783 1.06826 -1.6037092
-2.9185755 -1.1896685 0.94807583 -1.0303426 -1.5715134 1.1986326 0.28712142 -2.291314
0.72505623 1.1943167 -0.1969896 0.42401224 0.30979937 0.8731269 0.08046378 -0.4158384
0.25958645 0.94654834 0.38541895 0.2785504 -0.8435516 -0.5481887 -3.2666218 -0.12513329
0.81857413 -1.8264898 -0.163362 0.54518956 -0.93710566 0.033190638 0.18915333 -2.407981
0.9325965 1.2299913 -0.83253706 0.70647436 1.2024179 -0.30185422 0.10271299 -0.3206087
-0.96586514 1.34357 0.55826646 -1.1791831 1.9310399 2.2730236 0.78367096 -1.7659225
-2.5237281 -2.2004457 0.081022516 -0.8851564 -0.3325354 1.5911008 1.1869162 1.0816419
-0.67279786 -1.1243825 -1.189259 0.5789514 0.25540093 -0.529945 0.7026127 0.5377259
-0.6512638 -0.521072 -0.3494147 -0.31822163 -0.9215574 -0.51106584 -1.1532958 -0.5190056
-0.62511605 -2.5215194 -1.6507041 -3.2838502 2.5867972 1.178952 -5.3691897 0.33538324
0.07938304 -3.3893583 -2.0931394 -0.90751106 -0.8449596 -0.07791244 1.6604995 -0.64776397
-1.3228245 0.6087078 1.1656196 -0.3496589 -1.4524099 0.5421285 -0.789018 -2.727449
-1.4887962 2.482759 -1.161526 -3.9924796 -0.33464414 -1.0956856 -1.0799587 1.0874099
-0.52932316 -1.9290543 -0.506474 -0.62857705 -1.328296 -0.9878144 0.5584096 0.1446478
-0.46371362 0.115634724 -0.6114246 1.331619 0.44480383 -0.8841472 -0.88868785 -0.31998438
-0.9865556 0.13901 0.03847334 0.24874939 0.6796175 0.82615334 1.153322 1.7796911
0.46825612 -0.611796 -0.72921795 -0.8062244 -1.829684 -4.8985815 -2.6267698 -3.1169813
0.7356172 -2.34442 -1.4570326 -0.9341369 -0.7266868 0.94676363 0.7851618 -0.15372738
0.8882388 -0.6389906 -0.66928476 -1.3316593 -0.90571386 -1.0774044 -0.4467843 1.7332476
-0.47292084 0.24538052 1.3462027 0.8704789 1.0314587 -0.6607859 0.12400628 -0.12937771
-1.1488032 -2.598257 -1.2661316 -0.22778031 -1.1111729 -1.7409395 -1.2811117 -1.6269377
-2.2315712 -1.682819 -2.5670614 -2.554435 -1.1267884 -0.6378039 -0.20041245 -0.35935384
-0.6292505 -1.2260306 -0.26263988 -0.91118395 -0.23771282 1.2214973 -0.8639757 -1.4387598
-2.245773 0.107324846 -1.0332955 0.4320817 -1.427951 -1.191093 0.72825223 0.9305272
-1.5268756 -4.4466267 0.118418306 -1.6607322 -2.9581938 -0.50390464 -1.5196351 -3.1644735
0.032749377 1.0631009 -1.1367463 -0.61988723 -0.5455739 -0.18433063 0.42339906 1.8491377
1.9108636 -0.13414575 -0.5170381 -3.2309792 -1.2289903 -0.027257742 -0.22704343 -0.60345
-0.22900735 -0.40158448 -1.131816 -1.6167147 0.42996797 -1.0414395 2.1817694 1.4957309
0.99841714 0.736769 -0.26063475 -0.27621618 -0.80907404 -2.316942 -1.8135093 -1.5413245
-0.68801194 -0.3311628 0.265401 0.08563423 0.1775966 -1.6473681 -0.58652157 0.64038384
00000000: b59b f5be acf4 3a3f 742c e63d c816 a93d
00000010: 86cd bebf 3e72 2740 f76e fd3f 5fb6 efbe
00000020: 3a77 9d3e f4a4 3fc0 2c14 083f b0b3 8abc
00000030: 0330 c1c0 db3b 19c0 bebc 883f 5846 cdbf
00000040: f1c9 3ac0 0f47 98bf 19b5 723f 44e2 83bf
00000050: 5a27 c9bf cb6c 993f 9401 933e e3a4 12c0
00000060: 499d 393f 5fdf 983f a4b7 49be 2218 d93e
00000070: 069e 9e3e 3f85 5f3f 32ca a43d c5e8 d4be
00000080: 84e8 843e fe50 723f a255 c53e 289e 8e3e
00000090: fff2 57bf 1856 0cbf 5510 51c0 f122 00be
000000a0: 138e 513f 6bca e9bf 5e48 27be 8b91 0b3f
000000b0: 28e6 6fbf e8f2 073d 69b1 413e 5c1c 1ac0
000000c0: a5be 6e3f 5b70 9d3f 2621 55bf 81db 343f
000000d0: d4e8 993f a38c 9abe 305b d23d d326 a4be
000000e0: f042 77bf 1afa ab3f 8dea 0e3f 79ef 96bf
000000f0: 512c f73f 3879 1140 a99e 483f c009 e2bf
00000100: c384 21c0 1ad4 0cc0 22ef a53d 9c99 62bf
00000110: 1442 aabe 31a9 cb3f dfec 973f 3e73 8a3f
00000120: 7b3c 2cbf c4eb 8fbf a439 98bf 2936 143f
00000130: e9c3 823e 7aaa 07bf 6dde 333f 68a8 093f
00000140: 39b9 26bf f964 05bf 7ce6 b2be f2ed a2be
00000150: 30eb 6bbf 36d5 02bf 329f 93bf 8ddd 04bf
00000160: 9b07 20bf 9360 21c0 464a d3bf 9a2a 52c0
00000170: 168e 2540 e6e7 963f 67d0 abc0 5ab7 ab3e
00000180: 9393 a23d 3feb 58c0 fff5 05c0 a552 68bf
00000190: 464f 58bf 8f90 9fbd 3f8b d43f dcd3 25bf
000001a0: 5052 a9bf 46d4 1b3f 0633 953f 7e06 b3be
000001b0: 91e8 b9bf efc8 0a3f 15fd 49bf 868e 2ec0
000001c0: e090 bebf 86e5 1e40 e2ac 94bf c984 7fc0
000001d0: 7a56 abbe 6d3f 8cbf 163c 8abf 3f30 8b3f
000001e0: b981 07bf 40eb f6bf 48a8 01bf 6dea 20bf
000001f0: 9a05 aabf 68e1 7cbf eef3 0e3f 8e1e 143e
00000200: df6b edbe e6d1 ec3d 5386 1cbf 7e72 aa3f
00000210: 54bd e33e 7957 62bf 0c81 63bf fed4 a3be
00000220: e88e 7cbf a358 0e3e 3996 1d3d 29b8 7e3e
00000230: 6afb 2d3f c97e 533f 0ea0 933f ebcc e33f
00000240: 44bf ef3e aa9e 1cbf 07ae 3abf b964 4ebf
00000250: 1633 eabf 2ec1 9cc0 ff1c 28c0 9f7c 47c0
00000260: 6951 3c3f fa0a 16c0 0b80 babf 9923 6fbf
00000270: 2508 3abf 1a5f 723f 5d00 493f b66a 1dbe
00000280: 9e63 633f e394 23bf 3f56 2bbf d073 aabf
00000290: dddc 67bf 63e8 89bf e9c0 e4be 0fdb dd3f
000002a0: ae22 f2be 0845 7b3e 5f50 ac3f b5d7 5e3f
000002b0: d706 843f 4429 29bf 01f7 fd3d 977b 04be
000002c0: fc0b 93bf d849 26c0 9a10 a2bf 3e3f 69be
000002d0: ea3a 8ebf 1bd7 debf 78fb a3bf 7f3f d0bf
000002e0: 10d2 0ec0 9d66 d7bf bc4a 24c0 dd7b 23c0
000002f0: 9a3a 90bf 1e47 23bf ec38 4dbe 3afd b7be
00000300: 9016 21bf 92ee 9cbf bc78 86be 5a43 69bf
00000310: fd6a 73be 065a 9c3f 832d 5dbf 4829 b8bf
00000320: bfba 0fc0 21cd db3d 0743 84bf d039 dd3e
00000330: 19c7 b6bf bc75 98bf bd6e 3a3f 0837 6e3f
00000340: a970 c3bf c44a 8ec0 4c85 f23d df92 d4bf
00000350: 0c53 3dc0 e5ff 00bf 6783 c2bf bc86 4ac0
00000360: 3624 063d b113 883f e780 91bf eeb0 1ebf
00000370: bbaa 0bbf 2bc1 3cbe c3c7 d83e 8bb0 ec3f
00000380: 2e97 f43f 815d 09be 9c5c 04bf 5dc8 4ec0
00000390: 8e4f 9dbf a14b dfbc 137e 68be b37b 1abf
000003a0: e780 6abe 7b9c cdbe 59df 90bf 82f0 cebf
000003b0: c324 dc3e e44d 85bf 1ca2 0b40 1c74 bf3f
000003c0: 4498 7f3f e59c 3c3f eb71 85be 356c 8dbe
000003d0: 7a1f 4fbf c748 14c0 1321 e8bf 1f4a c5bf
000003e0: 8d21 30bf 2c8e a9be a4e2 873e 0061 af3d
000003f0: e2db 353e f5dc d2bf 4726 16bf 32f0 233f

layer1.1.bn1.weight f4 [16]
2.9437842 1.3626631 3.1277835 2.598131 2.734179 2.4366598 2.7369266 1.2318685
0.94689304 1.5558766 1.0883673 2.1318629 2.8011363 0.928048 1.0560228 1.4734892
00000000: f666 3c40 bf6b ae3f 9b2d 4840 c747 2640
00000010: cafc 2e40 3cf2 1b40 ce29 2f40 dead 9d3f
00000020: 9567 723f f726 c73f 9f4f 8b3f 7170 0840
00000030: d145 3340 8e94 6d3f c12b 873f 4b9b bc3f

layer1.1.bn1.bias f4 [16]
-0.16251962 -1.0400842 -0.98044705 0.6517963 -0.68511206 0.36086768 1.6180427 -1.328686
-1.7490603 -0.65456986 -1.3182851 0.09025428 0.33761495 0.58412385 -0.89614385 -0.77494407
00000000: 8b6b 26be 7b21 85bf 94fe 7abf 1fdc 263f
00000010: 8163 2fbf a6c3 b83e 061c cf3f 6212 aabf
00000020: 35e1 dfbf e491 27bf 91bd a8bf 3cd7 b83d
00000030: dedb ac3e 2489 153f af69 65bf bc62 46bf

layer1.1.bn1.running_mean f4 [16]
-81.36804 -90.95469 -1.0581048 -66.36556 -59.90527 -32.864468 -91.561714 101.49274
48.190483 -88.13452 -2.8108578 -68.80323 -75.851974 -21.028404 -31.505949 -38.831043
00000000: 70bc a2c2 cde8 b5c2 fa6f 87bf 2bbb 84c2
00000010: ff9e 6fc2 3775 03c2 991f b7c2 48fc ca42
00000020: 0ec3 4042 e044 b0c2 18e5 33c0 419b 89c2
00000030: 36b4 97c2 2c3a a8c1 2f0c fcc1 fd52 1bc2

layer1.1.bn1.running_var f4 [16]
6444.027 1740.0472 2416.6113 2992.9302 2433.3806 2465.4524 3831.0212 1737.3027
1268.6312 3272.8135 2614.5945 6529.1855 4425.773 1232.4805 2417.7168 1969.7343
00000000: 3760 c945 8381 d944 c809 1745 e20e 3b45
00000010: 1716 1845 3d17 1a45 5770 6f45 b029 d944
00000020: 3394 9e44 048d 4c45 8369 2345 7c09 cc45
00000030: 2f4e 8a45 600f 9a44 781b 1745 7f37 f644

layer1.1.conv2.weight f4 [16, 16, 3, 3]
-0.039412707 -0.14987162 -1.1005604 -0.69675994 -2.1966665 -1.908879 -0.3220258 -1.7720647
-0.41151956 0.8613999 -0.630378 1.3659335 -0.05965573 -0.26908594 -0.23692815 2.3940465
2.2043726 1.3471992 -1.5574822 -3.1679723 -2.0886004 -1.1627631 -1.6541073 -1.1849635
-1.8031706 -1.627013 -2.9756064 -1.559341 -0.40991598 1.5944839 0.2974705 2.656114
0.050321016 0.2524588 -2.520502 -3.40149 2.8321986 0.9459565 0.31137863 -0.8786214
0.5154225 0.18756247 0.7357443 1.7334114 -0.8908334 1.1120462 1.5725194 -2.3416255
-0.5728005 -2.127748 1.316417 0.1325803 1.0873494 0.7110481 0.2867525 0.27142113
3.30029 -0.3995709 0.98581207 0.059082773 0.8461911 -0.99116004 -1.5002944 1.7981845
1.044487 -1.4783125 -1.4165902 -1.8772362 -2.2400117 0.15082909 0.12042812 0.037104998
-1.1264191 1.196429 1.2559057 0.75753164 0.48847446 -0.17057969 1.5995959 1.1060208
-1.1821271 1.6245903 -0.8072441 1.0123245 -2.065828 0.71118724 2.2284513 -1.0386575
2.2828517 -0.46570906 0.58759946 -0.41104633 -0.86259437 0.540786 0.35226202 -0.37413722
0.43036196 1.1164913 0.44221762 0.16949269 -0.36841282 -0.20372078 -0.64520776 -0.7469839
0.24714628 -0.72188544 -0.24853416 -0.15032421 1.6009763 1.7399352 -1.9113786 -0.022426799
-1.3733646 -0.24781929 0.20880865 1.9802532 1.3268039 -2.0259821 0.25651872 0.657788
-1.3836755 1.004166 0.42869076 -0.05794791 -0.81553465 0.4034402 -1.0525076 -0.4680242
-1.004566 0.9261606 -0.16934031 -0.4255277 1.0842519 0.65856916 1.1366025 1.8820463
0.89228743 1.879205 0.80478734 0.68475336 1.017348 -1.578936 -0.34088802 -0.004457517
0.21832079 0.21559003 -0.85876703 2.4284472 1.0441147 -1.2823309 0.8910559 4.2847657
2.2909012 -0.4941891 0.26297212 0.87980604 -1.2687095 -0.41700146 0.14868988 1.0081099
-0.79401493 -0.73176867 -0.5687667 0.65208143 0.12525867 1.564177 0.5678197 2.831076
1.1222852 -0.1297975 1.9841815 -0.25789034 -0.75816137 0.03527574 -1.605684 -0.3503239
2.3074164 0.06758408 -0.72771144 -1.2474368 0.73230404 2.391595 -2.6227283 -0.723637
-0.78750175 0.68069905 3.2095232 0.1661646 -1.7595983 0.64867276 -1.0118009 -2.3967931
1.2500918 0.08558741 -2.9347813 -1.3735815 0.003203115 0.5180007 1.9315056 -0.16550386
-0.51512533 1.0165658 1.5615966 0.5401065 0.7769036 -0.8400618 0.07508517 1.1226276
-0.17931257 0.6675033 0.7885088 -0.5794821 -1.2935814 2.3927174 0.6017565 -0.3151648
-0.45701033 -1.3568903 -0.10278351 -0.5786633 1.3855063 1.3819358 -0.87497646 -2.5737627
0.75163335 -0.7797653 -0.6044801 0.5584848 -0.24559024 0.4966628 2.7313287 0.13958006
-1.5160241 -0.53796077 0.07868704 -0.56688136 0.43577176 0.6145641 -0.4151709 -2.6397781
1.6218537 0.3233108 -0.8144062 0.5933666 -0.056713462 -1.2048378 1.1264523 -0.19376387
-4.0071235 0.73033875 0.4019402 -0.65177536 0.93485284 0.17067128 -2.0537782 2.7078123
00000000: 386f 21bd f277 19be 2adf 8cbf dc5e 32bf
00000010: 2f96 0cc0 2656 f4bf 91e0 a4be 04d3 e2bf
00000020: b1b2 d2be b484 5c3f 7460 21bf e9d6 ae3f
00000030: 9159 74bd a2c5 89be 4b9d 72be 0f38 1940
00000040: 7114 0d40 0671 ac3f 945b c7bf 0fc0 4ac0
00000050: a1ab 05c0 6cd5 94bf cab9 d3bf e2ac 97bf
00000060: 4bce e6bf f641 d0bf 5670 3ec0 7c98 c7bf
00000070: 82e0 d1be 0c18 cc3f 0e4e 983e c6fd 2940
00000080: 691d 4e3d 4842 813e e84f 21c0 03b2 59c0
00000090: be42 3540 352a 723f 056d 9f3e 55ed 60bf
000000a0: bbf2 033f 6010 403e bd59 3c3f 6de0 dd3f
000000b0: a80d 64bf 8857 8e3f 5148 c93f 31dd 15c0
000000c0: 0ea3 12bf 062d 08c0 5a80 a83f 21c3 073e
000000d0: 442e 8b3f 4007 363f 39d1 923e b6f7 8a3e
000000e0: f437 5340 8f94 ccbe 2e5e 7c3f c700 723d
000000f0: fb9f 583f aabc 7dbf a609 c0bf e92a e63f
00000100: c0b1 853f 5839 bdbf d452 b5bf 4749 f0bf
00000110: 5a5c 0fc0 f172 1a3e 05a3 f63d 69fb 173d
00000120: 802e 90bf 9624 993f 85c1 a03f 98ed 413f
00000130: 5319 fa3e 71ac 2ebe 8fbf cc3f 1792 8d3f
00000140: f14f 97bf 93f2 cf3f 8da7 4ebf d993 813f
00000150: 8736 04c0 5e10 363f f29e 0e40 bbf2 84bf
00000160: 3e1a 1240 6b71 eebe eb6c 163f aa74 d2be
00000170: fcd2 5cbf f470 0a3f b05b b43e ea8e bfbe
00000180: 6758 dc3e 30e9 8e3f 596a e23e 7e8f 2d3e
00000190: 9ba0 bcbe 2e9c 50be 562c 25bf 563a 3fbf
000001a0: ea13 7d3e 7ccd 38bf bd7f 7ebe 97ee 19be
000001b0: cbec cc3f 32b6 de3f 0ea8 f4bf 68b8 b7bc
000001c0: 69ca afbf 57c4 7dbe efd1 553e f078 fd3f
000001d0: b6d4 a93f b1a9 01c0 6c56 833e cb64 283f
000001e0: 471c b1bf 8388 803f 5b7d db3e ca5a 6dbd
000001f0: e1c6 50bf b78f ce3e 92b8 86bf dea0 efbe
00000200: 9e95 80bf dc18 6d3f 8c67 2dbe c4de d9be
00000210: c4c8 8a3f fd97 283f 317c 913f e5e6 f03f
00000220: f36c 643f ca89 f03f 8b06 4e3f ff4b 2f3f
00000230: 7638 823f 931a cabf e088 aebe 5d10 92bb
00000240: 7c8f 5f3e a2c3 5c3e 28d8 5bbf ae6b 1b40
00000250: 8da5 853f 6b23 a4bf 3d1c 643f cd1c 8940
00000260: 209e 1240 5b06 fdbe 48a4 863e f83a 613f
00000270: 1365 a2bf 3781 d5be 2942 183e bf09 813f
00000280: 9044 4bbf 3155 3bbf b29a 11bf cfee 263f
00000290: cf43 003e f436 c83f a25c 113f 5930 3540
000002a0: 0ba7 8f3f a3e9 04be a9f9 fd3f 340a 84be
000002b0: dd16 42bf 4b7d 103d 0e87 cdbf a75d b3be
000002c0: b6ac 1340 8669 8a3d 4c4b 3abf 02ac 9fbf
000002d0: 4778 3b3f e40f 1940 c8da 27c0 4640 39bf
000002e0: b799 49bf 4b42 2e3f d468 4d40 0e27 2a3e
000002f0: 843a e1bf 6b0f 263f b182 81bf 0f65 19c0
00000300: 0203 a03f 7448 af3d 75d3 3bc0 85d1 afbf
00000310: 5aeb 513b b29b 043f 933b f73f d879 29be
00000320: 41df 03bf d41e 823f 66e2 c73f 6b44 0a3f
00000330: 28e3 463f 4a0e 57bf 41c6 993d 43b2 8f3f
00000340: b79d 37be 7fe1 2a3f b6db 493f f058 14bf
00000350: 1394 a5bf 4822 1940 b70c 1a3f 485d a1be
00000360: 42fd e9be 95ae adbf 2980 d2bd 4723 14bf
00000370: 4558 b13f 46e3 b03f 75fe 5fbf 87b8 24c0
00000380: 0b6b 403f b39e 47bf 35bf 1abf dcf8 0e3f
00000390: 027c 7bbe 964a fe3e 17ce 2e40 13ee 0e3e
000003a0: 140d c2bf ccb7 09bf ac26 a13d 231f 11bf
000003b0: 7a1d df3e 1354 1d3f 4891 d4be 20f2 28c0
000003c0: e798 cf3f fe88 a53e ed7c 50bf e0e6 173f
000003d0: 604c 68bd 2038 9abf 972f 903f 096a 46be
000003e0: 5b3a 80c0 7bf7 3a3f 1bcb cd3e c0da 26bf
000003f0: 8452 6f3f 74c4 2e3e 1a71 03c0 cc4c 2d40

layer1.1.bn2.weight f4 [16]
3.2669678 1.752105 0.89838564 0.6724273 2.7231917 0.8873936 0.028034963 0.25498024
1.2021859 1.1219847 2.9793034 1.2718914 2.0280962 1.5415591 1.8138183 1.2441177
00000000: 0016 5140 fa44 e03f 9afc 653f 3224 2c3f
00000010: c648 2e40 3a2c 633f 94a9 e53c c58c 823e
00000020: 3ae1 993f 329d 8f3f e8ac 3e40 56cd a23f
00000030: 54cc 0140 cf51 c53f 332b e83f 403f 9f3f

layer1.1.bn2.bias f4 [16]
-1.7735083 -0.27247593 -0.2620238 -0.4199993 -0.17835106 -0.8050261 0.15884255 0.21528758
-0.47845617 -0.6721222 -4.6596036 -1.0296309 -1.3912168 -0.9413194 -1.1877671 0.40623748
00000000: 5202 e3bf f781 8bbe fc27 86be 260a d7be
00000010: a9a1 36be 3116 4ebf 9fa7 223e 5974 5c3e
00000020: 35f8 f4be 3310 2cbf 791b 95c0 f2ca 83bf
00000030: 6413 b2bf 4ffa 70bf c108 98bf 5cfe cf3e

layer1.1.bn2.running_mean f4 [16]
-10.2832155 14.048682 -23.320175 -47.14734 -22.732325 -25.613976 24.430878 36.537117
-32.98073 17.69079 9.514679 1.2633457 -12.133385 0.349721 -11.675576 18.75599
00000000: 0d88 24c1 67c7 6041 b88f bac1 e096 3cc2
00000010: cddb b5c1 6ce9 ccc1 7072 c341 0226 1242
00000020: 44ec 03c2 bd86 8d41 203c 1841 50b5 a13f
00000030: 5822 42c1 a20e b33e 29cf 3ac1 440c 9641

layer1.1.bn2.running_var f4 [16]
649.28925 627.0611 537.98694 1077.4501 909.2896 579.51337 1086.4835 559.93036
464.00772 592.2925 1180.5277 782.98944 710.2077 797.7659 718.09515 770.02454
00000000: 8352 2244 e9c3 1c44 2a7f 0644 67ae 8644
00000010: 8952 6344 dbe0 1044 79cf 8744 8bfb 0b44
00000020: fd00 e843 b812 1444 e390 9344 53bf 4344
00000030: 4b8d 3144 0571 4744 1786 3344 9281 4044

layer2.0.conv1.weight f4 [32, 16, 3, 3]
-0.48512247 0.0044083255 -1.5754883 -0.9476225 -0.037034966 -1.6457471 0.7702943 0.80540484
1.7220528 2.5554323 0.47927544 -0.44831586 2.6284711 2.068977 0.098361365 2.065368
0.8481015 1.3580807 -1.159492 -0.016579077 1.1456122 0.5011264 0.32926005 1.5643629
0.1358847 -0.39106825 0.28350484 0.33940896 -2.5694582 -2.1829028 -0.44805592 -1.1534454
-0.630643 0.68526185 0.2800904 1.9554954 -1.8737503 -1.6045929 1.8216888 0.5904581
-0.04751061 2.2577553 -2.63514 -0.37371352 1.2539439 -1.8054296 -3.3569698 -0.62540805
0.35073522 -0.5049901 0.98160946 -1.0734093 -0.12145007 -0.8813873 -0.2908303 -0.4186518
2.2315843 0.6341838 0.20273806 1.3579072 2.2432683 0.7585957 1.0372288 -2.020732
-1.2644213 -0.9696162 -0.30122274 1.0135694 0.98977125 2.1278346 1.4784026 0.6472828
0.65265083 -0.33772793 -0.44035336 1.5816936 -0.053383823 0.92771024 1.7615402 0.91969764
0.14886525 -1.2209274 0.8316736 2.0479972 0.82142484 -0.0914815 -0.028927004 -1.2434283
-0.1462048 -2.1683815 1.5069306 2.173149 -0.7843938 1.4767061 2.4446177 0.7487274
1.0072889 1.6878275 0.8394797 -2.0567586 -1.0301019 -0.387745 -2.661524 0.20082624
0.8532815 1.3490723 0.16794296 0.36885953 -0.075353906 0.98417425 -2.285383 -0.46461093
-0.8495517 -0.8052814 -0.3278215 0.019688534 -0.5497697 -2.2407525 0.6320801 -0.50589097
-1.9233893 0.27673188 -0.53047603 -0.50688535 -0.23369575 0.6091916 1.4970342 -0.3291661
-2.1073148 -1.5263631 -1.2306626 -2.4647877 -0.15104574 -2.0069299 -1.352547 -0.03819748
1.5066632 0.7835101 0.2231276 0.3497466 0.90979856 2.1110344 -0.53209496 0.4038421
-2.3625054 -4.7509527 -2.7868102 1.9988335 0.9967903 0.18808058 0.15994596 0.28944
0.60060173 -2.8068008 -0.48391503 0.98277026 0.7427033 0.31786042 -0.56084704 -0.80894995
-1.1509281 -1.0940651 1.5775671 1.7804153 2.457289 -0.2052358 0.36159042 0.8634032
-0.60003847 -2.5064607 -1.8654081 -1.6377957 -1.8435671 -1.3849418 1.2856312 1.4992776
0.30427864 0.59308153 0.67374057 0.7087156 -3.0951214 -1.4514664 -0.810188 -0.81489307
-2.6921413 -2.312346 0.6872657 3.0204027 1.46285 -0.6401419 -0.8681801 -0.3492179
-0.5860753 -2.4023373 1.2178829 -0.1427869 -0.16399801 -0.13297136 0.6063357 0.08596958
0.7381347 0.004659949 -0.14622581 0.73762244 0.94439405 0.108720675 0.35219094 -0.032408778
-0.5184082 -0.89032274 -0.87043864 -0.47210452 0.3766712 -0.66423315 -1.2815176 -1.5148478
-0.6363308 0.021079194 0.12562875 -1.7270162 -0.013203212 -1.0318059 0.36323878 -0.4043286
0.3767715 0.06985619 -0.27279034 0.87744576 0.014073584 1.1159403 1.5405989 -0.26230174
-3.23147 -2.3613183 0.68861413 -0.2303553 -0.52728903 0.90617996 1.0669932 -0.3921079
-1.1268202 -0.924125 -0.9251915 1.2308801 -0.0032486932 -1.0674329 -1.8261396 -1.249317
-0.58113366 0.58623147 -2.464324 -1.9547236 -3.5449538 -2.0927825 1.6605759 0.33216223
00000000: f961 f8be b773 903b 9aa9 c9bf 6397 72bf
00000010: fab1 17bd d7a7 d2bf 0232 453f 032f 4e3f
00000020: 3a6c dc3f 348c 2340 9763 f53e a889 e5be
00000030: df38 2840 1f6a 0440 af71 c93d fd2e 0440
00000040: 2e1d 593f 97d5 ad3f 3c6a 94bf d8d0 87bc
00000050: 6ca3 923f d249 003f c694 a83e 0b3d c83f
00000060: 5c25 0b3e 193a c8be 8c27 913e 03c7 ad3e
00000070: 0172 24c0 aeb4 0bc0 9667 e5be 19a4 93bf
00000080: d271 21bf 526d 2f3f 0268 8f3e ac4d fa3f
00000090: 0dd7 efbf 4d63 cdbf 192d e93f 4328 173f
000000a0: 7c9a 42bd 107f 1040 22a6 28c0 6157 bfbe
000000b0: 3c81 a03f 5118 e7bf 98d8 56c0 be1a 20bf
000000c0: 9193 b33e 0847 01bf c24a 7b3f 7a65 89bf
000000d0: d0ba f8bd 99a2 61bf b6e7 94be 8759 d6be
000000e0: 47d2 0e40 df59 223f 919a 4f3e e7cf ad3f
000000f0: b591 0f40 5433 423f eac3 843f ac53 01c0
00000100: 8fd8 a1bf c438 78bf de39 9abe a4bc 813f
00000110: a661 7d3f 712e 0840 4c3c bd3f 53b4 253f
00000120: 2014 273f adea acbe ff75 e1be f074 ca3f
00000130: ffa8 5abd 6b7e 6d3f 267a e13f 4e71 6b3f
00000140: 2270 183e 5947 9cbf 90e8 543f 6312 0340
00000150: e648 523f a75a bbbd 53f8 ecbc a928 9fbf
00000160: b6b6 15be c3c6 0ac0 1ae3 c03f e014 0b40
00000170: 08ce 48bf b504 bd3f 9e74 1c40 99ac 3f3f
00000180: d8ee 803f bb0a d83f 24e8 563f efa1 03c0
00000190: 61da 83bf 8386 c6be 6956 2ac0 65a5 4d3e
000001a0: a870 5a3f 67ae ac3f 3df9 2b3e 28db bc3e
000001b0: 2653 9abd d8f2 7b3f b743 12c0 7ce1 edbe
000001c0: 387c 59bf ec26 4ebf 38d8 a7be d949 a13c
000001d0: b5bd 0cbf 7d68 0fc0 00d0 213f 1282 01bf
000001e0: 9f31 f6bf cdaf 8d3e 47cd 07bf 3dc3 01bf
000001f0: f04d 6fbe fbf3 1b3f d19e bf3f 7688 a8be
00000200: 3fde 06c0 de5f c3bf 5a86 9dbf 15bf 1dc0
00000210: bcab 1abe 8a71 00c0 4320 adbf f674 1cbd
00000220: 57da c03f 1e94 483f 907b 643e fd11 b33e
00000230: 8fe8 683f 301b 0740 6037 08bf 64c4 ce3e
00000240: 4a33 17c0 ce07 98c0 195b 32c0 c7d9 ff3f
00000250: a62d 7f3f 3298 403e e0c8 233e 7b31 943e
00000260: 09c1 193f a0a2 33c0 b6c3 f7be d596 7b3f
00000270: ce21 3e3f 9abe a23e ac93 0fbf 5817 4fbf
00000280: 9d51 93bf 530a 8cbf b8ed c93f a6e4 e33f
00000290: 3944 1d40 5529 52be 6122 b93e fe07 5d3f
000002a0: 1f9c 19bf da69 20c0 b1c5 eebf 4aa3 d1bf
000002b0: 02fa ebbf c645 b1bf 908f a43f 54e8 bf3f
000002c0: 69ca 9b3e 31d4 173f 437a 2c3f 636e 353f
000002d0: 7816 46c0 a7c9 b9bf 7b68 4fbf d59c 50bf
000002e0: 0b4c 2cc0 7afd 13c0 a5f0 2f3f 474e 4140
000002f0: ab3e bb3f 57e0 23bf 0d41 5ebf b0cc b2be
00000300: 0809 16bf e5bf 19c0 96e3 9b3f bb36 12be
00000310: 18ef 27be a529 08be d138 1b3f d210 b03d
00000320: 65f6 3c3f 7cb2 983b 38bc 15be d3d4 3c3f
00000330: cfc3 713f f2a8 de3d 5f52 b43e 11bf 04bd
00000340: 66b6 04bf 31ec 63bf 11d5 5ebf afb7 f1be
00000350: 0cdb c03e 2f0b 2abf c508 a4bf 88e6 c1bf
00000360: 93e6 22bf 46ae ac3c d3a4 003e de0e ddbf
00000370: 4952 58bc 3712 84bf 6ffa b93e 2904 cfbe
00000380: 32e8 c03e c310 8f3d 2dab 8bbe 49a0 603f
00000390: e494 663c 22d7 8e3f 5832 c53f 6a4c 86be
000003a0: 68d0 4ec0 d71f 17c0 0449 303f 42e2 6bbe
000003b0: 6afc 06bf 69fb 673f 3c93 883f 5ec2 c8be
000003c0: a53b 90bf 7593 6cbf 5ad9 6cbf 7b8d 9d3f
000003d0: 07e8 54bb a4a1 88bf f1be e9bf 9fe9 9fbf
000003e0: 2dc5 14bf 4413 163f 7cb7 1dc0 6234 fabf
000003f0: 86e0 62c0 26f0 05c0 c08d d43f 2b11 aa3e

layer2.0.bn1.weight f4 [32]
1.4061055 2.1778517 2.5745552 2.2890918 2.8751843 2.6599321 2.1107817 1.87984
2.294806 1.8328336 1.9404374 1.8026717 1.9343041 1.6739655 1.7065015 2.4275975
1.6641837 2.1841962 2.4668257 2.5393314 2.3525565 1.8181397 2.0424082 1.5070657
1.9878223 2.2743855 1.904595 2.3517475 1.6057959 2.0247533 1.6429771 1.8802097
00000000: 44fb b33f ec61 0b40 83c5 2440 7b80 1240
00000010: 0503 3840 543c 2a40 0c17 0740 999e f03f
00000020: 1ade 1240 4b9a ea3f 4160 f83f f2bd e63f
00000030: 4797 f73f 8044 d63f a46e da3f c25d 1b40
00000040: f903 d53f dfc9 0b40 79e0 1d40 6884 2240
00000050: 4990 1640 cdb8 e83f d1b6 0240 87e7 c03f
00000060: f670 fe3f 888f 1140 c5c9 f33f 0883 1640
00000070: b88a cd3f 8f95 0140 134d d23f b6aa f03f

layer2.0.bn1.bias f4 [32]
-1.736556 -0.08481001 -0.37499163 -0.57566226 -0.8035253 -1.1148717 -0.62819266 -0.4636774
-0.74711967 -0.1279014 -0.9338593 0.010957471 -0.81431764 -0.38034832 -0.48618793 -0.89785206
-0.05069872 -0.7092015 -1.180483 -0.81033 -0.67552805 0.25210133 0.069791876 -1.1534832
-0.657321 -1.3317723 0.8227092 -0.9294487 -0.325831 -0.609159 1.5979831 -0.3074322
00000000: 7847 debf dfb0 adbd e7fe bfbe 9a5e 13bf
00000010: d6b3 4dbf 1eb4 8ebf 3cd1 20bf 2067 edbe
00000020: 3c43 3fbf 96f8 02be 6711 6fbf f786 333c
00000030: 1f77 50bf 04bd c2be a0ed f8be a2d9 65bf
00000040: 76a9 4fbd 3b8e 35bf 111a 97bf c971 4fbf
00000050: 68ef 2cbf 6d13 813e 0bef 8e3d 56a5 93bf
00000060: 3046 28bf 8477 aabf 129d 523f 5af0 6dbf
00000070: 52d3 a6be d8f1 1bbf b68a cc3f c167 9dbe

layer2.0.bn1.running_mean f4 [32]
27.327303 -56.71602 -41.34418 -86.21749 -11.969461 -73.810234 -52.18629 57.175148
-20.075397 -38.129593 -25.28223 -70.20341 -103.33685 -89.7744 30.322737 -22.303932
-26.225103 -32.99361 -17.108864 -52.124638 -34.444508 -18.566559 -76.53141 5.0025215
-41.3703 -81.18744 -65.62366 -40.90685 -44.16114 -17.792606 -58.47843 -34.98506
00000000: 519e da41 34dd 62c2 7160 25c2 5b6f acc2
00000010: ea82 3fc1 d79e 93c2 c3be 50c2 5ab3 6442
00000020: 6a9a a0c1 b484 18c2 0242 cac1 2568 8cc2
00000030: 78ac cec2 7e8c b3c2 f794 f241 746e b2c1
00000040: 03cd d1c1 75f9 03c2 f4de 88c1 a17f 50c2
00000050: 2dc7 09c2 5088 94c1 1510 99c2 a814 a040
00000060: 307b 25c2 f85f a2c2 503f 83c2 9da0 23c2
00000070: 02a5 30c2 4257 8ec1 eae9 69c2 b4f0 0bc2

layer2.0.bn1.running_var f4 [32]
2922.4404 3680.1487 4258.1836 5830.784 4977.252 2878.266 4373.3413 3183.492
5471.8403 4029.8188 3218.7473 3369.8003 4066.9507 3876.9326 4221.6494 4259.8574
3319.2637 4120.125 2995.9736 5614.8154 4626.4453 3606.7842 4074.351 2204.6384
3471.6243 5246.4077 7140.1445 4448.732 3171.0667 5720.945 4100.749 4758.4004
00000000: 0ca7 3645 6102 6645 7811 8545 4636 b645
00000010: 048a 9b45 42e4 3345 bbaa 8845 dff7 4645
00000020: b9fe aa45 1add 7b45 f52b 4945 ce9c 5245
00000030: 362f 7e45 ec4e 7245 32ed 8345 dc1e 8545
00000040: 3874 4f45 00c1 8045 943f 3b45 8676 af45
00000050: 9093 9045 8c6c 6145 9ea5 7e45 37ca 0945
00000060: fdf9 5845 43f3 a345 2821 df45 db05 8b45
00000070: 1131 4645 8fc7 b245 fe25 8045 34b3 9445
